mnist_mlp_model.pth (torch, 816272 bytes, 4 tensors)

fc1.weight f4 [256, 784]
000000 47 e6 11 3d d7 7e 9b bc be f7 b3 bc 6a fa c9 bc
       0.03562 -0.01898138 -0.021968719 -0.02465554
000010 34 56 4d 3c ec 20 ed bc c2 8b 06 bd 0a 50 89 bc
       0.012532759 -0.028946362 -0.032848127 -0.016761798
000020 3c 0e 47 3c 44 44 0b bd e0 ef 63 bc 78 df 97 3c
       0.01214939 -0.03400065 -0.013912171 0.018539175
000030 1a 13 84 bd 98 fc 9d bd 30 3b b5 bc e4 2d e9 bb
       -0.06448956 -0.07714194 -0.02212295 -0.0071160663
000040 f0 ed 22 3c 6c 62 a0 3c 8e a0 e1 bc 52 ac cd 3c
       0.009944424 0.019578181 -0.027542379 0.025106583
000050 78 c6 d0 3b d8 d8 5b 3c 0e 89 26 bc 68 af be 3b
       0.0063713156 0.013418399 -0.010164512 0.00581925
000060 fd 0e 0e 3d 18 72 1f bc ea ca b1 bc 00 0c da 38
       0.034682263 -0.009731792 -0.021703202 0.00010397285
000070 24 4b 81 3c 38 60 74 3c de c9 e9 3c 32 e6 39 bc
       0.0157829 0.014915518 0.02853864 -0.011346387
000080 b5 fd 0e bc f2 79 0e bc a6 6c 87 3c 1e d1 ce bc
       -0.008727481 -0.008696066 0.0165313 -0.0252462
000090 3c 20 03 bd 2d 04 90 bd fb 48 2f bd 33 0a 22 bd
       -0.032013163 -0.070320465 -0.04279421 -0.039560508
0000a0 c8 b2 03 bd d0 83 3a bd 83 eb c9 3d e6 14 a4 3d
       -0.03215292 -0.045535862 0.098593734 0.080117986
0000b0 28 12 43 3d 25 36 3b 3c 60 ac 84 bd 73 66 5c bd
       0.047624737 0.011426483 -0.064781904 -0.05380864
0000c0 81 7c e6 bd f5 f5 be bd 75 a3 98 bd 5a 5a 2c bd
       -0.11254216 -0.09324256 -0.07453052 -0.042078353
0000d0 ac c4 b1 bc 35 04 94 bc b0 aa 56 bb d1 88 e6 bc
       -0.021700226 -0.018068412 -0.0032755546 -0.028141411
0000e0 58 a3 60 bc 80 e5 92 bb 82 4f ef 3a 61 30 5b bc
       -0.013710819 -0.004482925 0.0018257948 -0.013378234
0000f0 d2 e2 2a bd c8 81 f4 bc 9a 69 51 3c be 11 18 bd
       -0.04172022 -0.02984704 0.012781525 -0.037126295
000100 65 8b 1b b9 bf 8e 1a 3e 03 cc 1d 3e 8b ce 8b 3d
       -0.0001483388 0.15093516 0.15409856 0.06826504
000110 2e ba 7d 3d 2e ec 0a 3e 00 a7 84 ba 8a 72 4d 3d
       0.061945133 0.13566658 -0.0010120571 0.05015806
000120 75 74 62 bd cc 7d 2d be 5c 96 82 be 57 40 c6 bd
       -0.055286843 -0.16942519 -0.2550534 -0.096802406
000130 b5 bb ea bc 5d 59 52 bc 9c b7 97 bd a1 e1 d9 bc
       -0.028653959 -0.012838689 -0.074080676 -0.026596846
000140 11 d1 c3 3d 21 c6 90 3d ee 37 33 bc a8 5e fd 3b
       0.095613606 0.0706904 -0.010938628 0.007732231
000150 ce b3 e0 3c 2a ea 2c bc f6 cb 1e 3e c5 8f 30 3d
       0.027429488 -0.010553876 0.15507492 0.04310586
000160 b3 49 4d bd 94 2a 52 3c 3c 4f 86 bd b9 de f0 3b
       -0.050119113 0.012827534 -0.065580815 0.0073507694
000170 1b 6b 9c 3d c8 9d b7 bb 16 2e 1d bc 36 3a 99 3c
       0.07637616 -0.005603526 -0.009593507 0.018704515
000180 ad 90 a3 ba 34 05 21 bd 63 6b 07 be 26 1d 46 be
       -0.001247903 -0.039311603 -0.13224559 -0.19347057
000190 d8 45 64 be 2a 69 71 be 8d 0e 44 be 65 75 f1 bd
       -0.22292268 -0.23575273 -0.19146176 -0.11789969
0001a0 eb 2c 59 bd 81 0e e0 bd 85 4a 22 bd c9 3e 9f 3c
       -0.053021353 -0.109402664 -0.03962185 0.019439118
0001b0 a9 38 ab 3c 8d 55 1c 3d 3f 36 0d 3d 56 b9 de 3c
       0.020901041 0.038167525 0.03447556 0.027187984
0001c0 0e 64 ff 3c dd 1f b5 bc 39 79 3a 3e c1 0f 27 3e
       0.03117564 -0.02210992 0.18210305 0.16314603
0001d0 1c 0c eb 3d 99 51 05 3e ed 0f 99 3d c6 28 00 bc
       0.11476919 0.13019408 0.07473741 -0.007822221
0001e0 4a 67 ca 3d c8 43 9b bc 7a a4 35 3d 6d fe 1d 3d
       0.09882982 -0.018953219 0.04434631 0.038572717
0001f0 82 f9 7c 3d 0c 14 a3 3d c9 04 04 bd 72 08 a2 bd
       0.061761387 0.07962808 -0.032231126 -0.07911767
000200 fa bf 40 be a3 71 6a be 36 5c 80 be 66 ff 87 be
       -0.18823233 -0.22894911 -0.2507035 -0.2656204
000210 16 51 c9 be 55 82 1f be 28 d3 4e be 21 27 10 bd
       -0.39319676 -0.15577061 -0.20197737 -0.035193566
000220 82 10 7f bb 89 24 bf 3c 17 13 a1 bd 1e 72 ee 3c
       -0.0038919752 0.023332851 -0.07864969 0.02910715
000230 72 0e 00 bd 5e 9f d0 3c 33 35 f9 3d 79 65 9f 3d
       -0.031263776 0.025466617 0.1216835 0.07783026
000240 58 01 ec 3d b0 8d 2b 3e 18 2f c8 3d 08 42 d6 3d
       0.11523694 0.16753268 0.097746074 0.10461813
000250 fc 68 c7 3c 8d 14 24 3c a0 fc 50 ba bc 6a b9 3c
       0.024342053 0.010014665 -0.00079722144 0.022633903
000260 21 9e 29 3d 21 7a 27 bc 5f 9c 8e bd c9 59 b4 3c
       0.04141057 -0.010221989 -0.06963419 0.02201547
000270 45 c5 ca bd 24 25 59 be 29 9d 1d be 98 00 15 be
       -0.099009074 -0.21205574 -0.15391983 -0.14551008
000280 da 8f a6 be b6 d8 4f be 0b 80 72 be 4d 21 01 be
       -0.32531625 -0.20297512 -0.23681657 -0.1261036
000290 98 2e db bd de 96 4d bd f0 d9 1f bd c7 38 78 bd
       -0.107022464 -0.050192706 -0.0390262 -0.060601022
0002a0 24 30 42 3c 29 36 3a 3d f1 d0 2d bd 6c e2 51 3e
       0.011852298 0.045461807 -0.04243559 0.2049653
0002b0 30 9b e3 3c 54 4c da bd 61 b3 a8 3d 16 7e 88 3d
       0.02778396 -0.1065909 0.08237339 0.06664674
0002c0 2e 38 67 3c cb de 4f 3d d4 89 45 3c ba b0 b4 3c
       0.014112515 0.05074958 0.012056787 0.022056926
0002d0 23 54 ac ba b4 89 b4 bc fb 9c be bc 89 04 9c bc
       -0.0013147633 -0.022038318 -0.023268213 -0.019045131
0002e0 ed 04 cb 3b 7e 8b 8b bd 1f 66 c9 bc da f0 3e be
       0.0061956556 -0.068137154 -0.024584828 -0.18646565
0002f0 d5 4e 15 be 64 93 8d bd 57 77 8c be 27 cd 87 be
       -0.14580853 -0.06912878 -0.274348 -0.26523706
000300 96 38 2b be d8 f4 49 bc d6 76 8c bd 10 b1 7b bd
       -0.16720805 -0.012326442 -0.06858604 -0.061448157
000310 50 a4 f0 bc e7 2c c8 3d 48 c5 c6 bb 9b 8c 2f 3e
       -0.029375225 0.097741894 -0.006065998 0.1714348
000320 9e c2 eb 3d 95 33 ad bd aa b5 9b 3d 01 73 1d 3c
       0.1151173 -0.08457104 0.07603009 0.009609939
000330 75 62 43 3c 76 16 8f 3c 17 89 8e bc 17 11 c8 39
       0.011925329 0.017466765 -0.017399354 0.00038159706
000340 70 da cf 3c 1c 5f 6a 3d e7 ad a6 3d c3 35 c5 3d
       0.025372714 0.05721961 0.08138638 0.09629395
000350 e4 b6 35 3d 20 4a cc bc c7 39 06 be ff 40 67 be
       0.04436387 -0.02493769 -0.13107978 -0.22583388
000360 5a bc 19 be 1c 1e 12 be f6 d4 76 be 19 44 83 be
       -0.15013257 -0.14269298 -0.24104676 -0.25637892
000370 d5 c8 7b be 3b 70 44 ba 9f e9 d9 3c 25 e8 70 bb
       -0.2458833 -0.000749353 0.026600657 -0.0036759463
000380 3b 06 6b bd 56 ca 90 3d 24 05 f5 bc 4b 18 6b 3d
       -0.05737899 0.070698425 -0.029909678 0.057396214
000390 17 65 c1 3d 34 4f e2 bd 23 51 bb bd 33 a9 f2 bc
       0.094431095 -0.11050263 -0.09146335 -0.029621696
0003a0 4a e2 13 3b 13 93 90 bc 6e d0 19 3d da 56 af 3c
       0.0022565299 -0.017648255 0.03755229 0.021403719
0003b0 62 60 09 3d 5f 55 cd 3d d8 ef 20 3e b9 01 33 3e
       0.033539183 0.10026049 0.15716493 0.17481126
0003c0 62 d1 ed 3d 3d 37 2b bd f9 9e d3 bd 9f d0 cd bd
       0.11612202 -0.041800726 -0.10333056 -0.10049557
0003d0 7d 52 0d be 51 0c 00 be 2f 4b f8 bc f7 6b 0c be
       -0.13800998 -0.12504698 -0.030309288 -0.1371306
0003e0 9e 78 8d be 60 46 0f be 0e c2 63 3a 0e 24 91 bd
       -0.27631086 -0.1399169 0.0008688279 -0.07086955
0003f0 3e c5 6f 3d 6c c7 6a 3d 2b 5b c1 3c 57 0d 2f 3d
       0.058537714 0.05731909 0.023603043 0.04273733

fc1.bias f4 [256]
000000 1e 93 45 3d 33 a2 cc 3c 07 ef 45 bd 83 08 34 bd
       0.048236005 0.024979686 -0.048323657 -0.04395343
000010 1e 6c 66 bd 9d 7f ec 3c c2 87 36 bd f9 44 2a bc
       -0.056255452 0.028869445 -0.044563062 -0.010392421
000020 ce f8 96 bc e2 61 f2 bd 28 3f c7 3c 9d 51 da bd
       -0.018429186 -0.11835076 0.024322107 -0.10660098
000030 40 f6 8e 3d 7b 85 19 bd 09 41 45 bb f6 17 32 3d
       0.06980562 -0.037480813 -0.0030098578 0.043479882
000040 7f 53 9b 3d ab 3b c6 3d 24 00 d3 bc 7e 88 d6 3d
       0.07584285 0.096793495 -0.025756903 0.104752526
000050 91 f4 8e 3c 88 8a cc bd cd ec 0e bc 6b c3 7c 3c
       0.017450603 -0.0998736 -0.00872345 0.015427451
000060 99 b3 bb bc 00 b8 88 3d 8d 71 02 3e 54 3c 1e 3e
       -0.022912787 0.0667572 0.12738629 0.15452701
000070 91 65 ce 3d 4c aa 4e bd be 67 9c bd 60 93 4a bd
       0.10077966 -0.050455377 -0.07636975 -0.049456954
000080 fb 4a b3 3d c2 f8 30 3d 69 0b d5 bd a6 f9 ab bd
       0.08754536 0.043205984 -0.10402567 -0.08397226
000090 48 bb 62 ba a2 08 6c bd 27 bb 96 3d e3 e1 8f bd
       -0.0008649123 -0.05762542 0.07359915 -0.07025506
0000a0 0c ef 13 bd 8c 94 df 3d 98 62 dc bb 06 da 94 3c
       -0.036116645 0.10917005 -0.0067256205 0.018170368
0000b0 28 eb b1 3d 24 0c 48 bd c6 91 04 3d de 3a 6f 3d
       0.086874306 -0.048839703 0.032365583 0.05840575
0000c0 45 5b 94 3d eb 0b 7c bc 1e fe 1e 3e 85 63 ea b9
       0.07243971 -0.015383701 0.15526626 -0.00044706106
0000d0 4b 9d cf bc 78 19 86 bd dc 36 5c 3d 5c 70 94 3d
       -0.025343558 -0.065478265 0.053763255 0.07247993
0000e0 a2 9a c3 3d 37 12 70 3c 80 70 eb 3d 5b ef 12 3d
       0.09550978 0.01465278 0.11496067 0.0358728
0000f0 88 76 65 bc af bd 33 3d 4b c7 89 bd 34 5f 7f bd
       -0.014005311 0.04388207 -0.06727465 -0.062346652
000100 73 d8 86 3c c9 b5 42 bd 82 96 c9 3d 12 c0 1f be
       0.016460633 -0.047536645 0.0984316 -0.15600613
000110 a4 c4 51 3c 78 e0 0e 3e 35 dc 2e 3d 4f a2 79 3b
       0.01280323 0.13952816 0.042690475 0.0038091128
000120 c3 e5 fd 3c 56 d1 e5 3d 2f d2 ca 3b bb ff 2a bd
       0.030993348 0.11221568 0.0061896066 -0.04174779
000130 dd c5 bd 3d 88 f5 1a 3b 7a d6 c3 3d 4c 1c f9 3c
       0.09266255 0.0023644883 0.095623925 0.030409
000140 aa a8 54 3d 40 64 e7 3c 9c 13 fe 3c 7b 69 e7 bd
       0.051918663 0.028246045 0.03101521 -0.11299416
000150 7d 77 94 3c 0b 57 00 3d 3c 04 ff bc ff a0 6b bc
       0.018123383 0.03133301 -0.031129949 -0.014381646
000160 af bb a6 3c b3 6a ea 3d 92 9a ee 3c 05 b2 12 3e
       0.020353166 0.114461325 0.02912644 0.14325722
000170 70 f7 b5 3c 77 dd 1f 3d 52 84 50 bc 95 27 e8 3d
       0.022212714 0.039029565 -0.01272686 0.11335675
000180 fe 37 ff bc eb 80 98 bd eb 0d e2 3c cc 6f 7a 3d
       -0.031154629 -0.07446464 0.027594527 0.061141774
000190 ca c6 8f bc e3 33 18 3d 1a 42 ab 3d d1 22 2f bc
       -0.017550845 0.037158858 0.08362217 -0.010689453
0001a0 6a 23 0d 3e 1b ed da bb 89 e9 1d 3d 25 ad 3a bd
       0.1378304 -0.006681097 0.038552795 -0.04557528
0001b0 e4 02 d5 3d fc 9e 43 3d 73 a1 0e 3e 38 af 2a 3d
       0.10400942 0.04775904 0.13928775 0.041671008
0001c0 bb 09 1a 3d 25 d2 70 bd 48 1a b9 bc 1d 30 ef bc
       0.037606936 -0.05879416 -0.02259554 -0.029197747
0001d0 b1 82 df 3d 0b e1 1d bd a0 60 1f 3d 29 c7 88 3d
       0.10913599 -0.038544696 0.03891051 0.06678612
0001e0 5e 5a 81 3d de d1 e8 3d 26 f6 f8 bc 17 4e 8a bc
       0.06316064 0.11368154 -0.03039081 -0.01688294
0001f0 2c b5 c4 3c b2 23 21 3d b4 bc 0a 3e 67 63 a1 3d
       0.02401217 0.039340682 0.13548547 0.078802876
000200 20 74 df 3d 9c 34 f3 3d 85 d1 94 3d 95 93 3d 3c
       0.10910821 0.11875269 0.07266525 0.011570831
000210 f7 d3 0b 3e ad 65 a8 3d 99 bd 96 bc 38 17 9a 3d
       0.13655077 0.08222518 -0.018400954 0.0752396
000220 f8 39 e4 3d 1d 33 a4 bc ed 51 e6 3d 37 6c 03 3e
       0.11143869 -0.020043904 0.11246095 0.1283425
000230 d2 49 27 3d 97 6a 88 3d 9e af 01 ba b6 48 8e 3d
       0.040841885 0.066609554 -0.00049471285 0.06947462
000240 10 a1 44 bd 72 0c 22 3d a3 64 fd bd 05 3a a3 bd
       -0.048005164 0.03956265 -0.123727106 -0.07970051
000250 89 fa f4 3c 66 ec ac 3c 9e be 90 3d 23 be 26 3d
       0.02990462 0.021108817 0.07067607 0.040708672
000260 79 44 ab 3d 3e 81 00 3e 4c 7a 0c bd 49 c8 2d 3c
       0.083626695 0.12549302 -0.03429632 0.010606834
000270 dd a9 9e 3b 8d cd 04 3d 9d 72 8e bb c5 a5 d8 bd
       0.0048420266 0.03242259 -0.004347159 -0.10578493
000280 35 88 c2 3d c6 9f 0b 3e 53 90 b3 3d 7e 65 9e 3d
       0.09498636 0.13635167 0.08767762 0.07734202
000290 6d 16 ab 3d 1f a6 11 3d 69 a7 86 3b 78 0e 40 3d
       0.08353887 0.035558816 0.0041093123 0.0468888
0002a0 a0 79 94 bd c2 3d 91 3d 3f 4d 46 3a 4c 4d 30 3d
       -0.07249761 0.070918575 0.0007564611 0.043042466
0002b0 58 8b eb 3d b3 27 9b 3d 02 c1 40 bc a2 02 90 3d
       0.11501187 0.075759314 -0.011764767 0.07031752
0002c0 f5 5c fe bc db 84 8d 3c dd 3d 55 bd 66 8d e6 bc
       -0.031050185 0.017275264 -0.05206095 -0.028143596
0002d0 f9 ef 33 bd 8d 75 78 bd cf d9 20 3c 65 aa 68 bd
       -0.043930028 -0.06065898 0.009817555 -0.056803126
0002e0 62 c8 9c 3d d3 d3 76 3c 61 fa 86 3d 2f 3c 2d 3c
       0.076554075 0.015065151 0.06590725 0.010573431
0002f0 75 2f 1f 3c 80 d7 0d bd d5 b4 1c bd 72 b4 8e 3d
       0.0097159045 -0.034629345 -0.038258392 0.06968011
000300 90 15 6a 3d ac d9 dd 3d ac 60 af 3b 59 cf 0c 3e
       0.05714947 0.10832533 0.0053521004 0.13750972
000310 25 48 3d bc 34 75 c7 3d 32 30 47 ba 6e c0 11 3d
       -0.011552845 0.097391516 -0.0007598429 0.035583906
000320 5f 98 14 3d 16 40 c5 3d 3a 16 88 3d 02 5e ea bc
       0.036278125 0.09631364 0.066448644 -0.02860928
000330 9c 46 90 3d 21 e5 26 3d d6 8b 86 3d 36 62 f2 bb
       0.07044718 0.040745858 0.0656964 -0.0073969616
000340 7b e6 a5 bc 8c 05 6c bd 97 52 11 bd ef 8d 76 3d
       -0.020251503 -0.057622477 -0.035479154 0.060193952
000350 7f 14 a3 3c d1 6b ef 3d 93 4e 8a bd af 71 a3 3c
       0.019907234 0.11690486 -0.06753268 0.01995167
000360 da f3 fa 3d 0f 46 2a 3d 4d fa 61 3d 10 c5 9b 39
       0.12253542 0.04157072 0.055170346 0.00029710727
000370 d3 2e 52 bd 5f 04 ff bc 69 48 05 3c 1c 0b 89 bd
       -0.051314186 -0.031130014 0.00813494 -0.06691572
000380 17 0b 64 bd 2c 92 c5 3d 8d 54 ae bc 3f d3 1c bd
       -0.05567464 0.09647021 -0.021280551 -0.038287397
000390 52 13 db 3c 0c a5 5b bb 86 51 40 3e 52 84 a7 bd
       0.026742611 -0.0033515124 0.18781099 -0.08179535
0003a0 94 81 29 bc 94 7b b1 3c d5 fb fb 3b 52 c9 b5 3d
       -0.010345835 0.021665372 0.007689933 0.088762894
0003b0 e8 a3 64 bc e5 33 80 bd 64 2b d8 3d f4 d9 e0 bc
       -0.013955094 -0.06259898 0.10555151 -0.027447678
0003c0 60 1e 04 3d 54 3d 3d bd df 84 59 3d ef bb 5b 3d
       0.03225553 -0.046201065 0.05310523 0.053646024
0003d0 1b a8 57 3d 54 01 16 3e 4e 2b 5e 3d 42 e5 1e 3c
       0.052650552 0.14648944 0.054240517 0.009698214
0003e0 ac fb 4d bd 74 45 25 bd 1f b3 c2 3c 1f f6 50 3d
       -0.05028884 -0.04034944 0.023767052 0.05101597
0003f0 99 5c 70 bd bd aa 8b 3e 76 43 84 bd c5 76 05 3d
       -0.058682058 0.272787 -0.0645818 0.03258397

fc2.weight f4 [10, 256]
000000 0d 23 cc 3b 66 d9 b5 bd 09 bd 4c 3e 50 86 1a 3e
       0.0062297643 -0.08879356 0.19993986 0.15090299
000010 4e 6f 74 be f0 85 b0 3b 46 bb ba be b2 e1 57 bd
       -0.23870584 0.0053870603 -0.36471003 -0.052705474
000020 6c 51 11 bb e2 88 60 3d 95 96 d8 bd f2 4d 0a 3e
       -0.0022173775 0.05481804 -0.10575596 0.13506296
000030 b5 32 46 be 0a d2 6f 3d 2e a9 bd bd 80 b1 e5 3d
       -0.1935528 0.05854992 -0.09260784 0.11215496
000040 1b 22 c0 bd c2 50 df 3d e3 57 76 3c ce 33 01 bf
       -0.09381505 0.10904075 0.015035602 -0.5046967
000050 55 e3 da 3d c2 ec dd 3d 82 4f 1e 3e 4c fd 54 3d
       0.106878914 0.108361736 0.15460017 0.051999375
000060 01 bf 13 3e fd 2f 97 3d 86 57 a5 bd 71 c3 a9 bd
       0.14428331 0.073822 -0.080733344 -0.082892306
000070 04 e0 01 bf ce 56 9f 3d 95 36 f6 3a 44 e9 b0 be
       -0.50732446 0.077802286 0.0018784577 -0.34552968
000080 7e 7d c7 bc 0c 3f 70 bd cf 3b d8 3d 1e 0d 94 3d
       -0.024351832 -0.058653876 0.105582826 0.072290644
000090 8b 0a fa 3d 80 c0 e3 3d 11 6f 99 be b9 03 1a 3d
       0.12209042 0.11120701 -0.2996755 0.037601206
0000a0 29 9c 94 3d 1e 88 7b 3b 45 1d 73 3d ee 11 89 3e
       0.07256348 0.0038380693 0.059354085 0.26771492
0000b0 71 07 b9 bd 66 c5 91 3d b1 0a e9 be 76 76 a8 3d
       -0.090346225 0.07117729 -0.4551597 0.0822572
0000c0 27 d5 f0 3d 72 83 b5 3d 7d de 03 bd 88 37 f9 bd
       0.117594056 0.08862962 -0.032194603 -0.12168795
0000d0 5e 18 75 be ea 76 ab 3d 9f 08 3d 3d a8 bd b6 3d
       -0.23935077 0.083722904 0.0461508 0.08922893
0000e0 ab 7f ed bd b1 ec 0d bd b9 1c 24 3e 96 35 38 be
       -0.11596616 -0.034649555 0.16026582 -0.17989191
0000f0 ad e7 48 bd a9 90 a9 3b c4 51 b0 bd 67 66 9d 3d
       -0.04904907 0.0051747155 -0.086093456 0.07685547
000100 c1 b5 d9 3c 22 37 b3 bd 42 d4 3d be f5 c3 1b 3e
       0.026575925 -0.0875075 -0.18538001 0.1521147
000110 ba c4 8d 3d e1 ad 1b bc 3a 35 6f 3d 50 36 a9 bd
       0.06922288 -0.009501905 0.05840037 -0.082623124
000120 57 4d 04 be 9b a4 45 bd 3b 10 15 3d 50 f3 d7 bd
       -0.12920128 -0.048252683 0.03639243 -0.10544455
000130 cc 05 af 3c 1b d4 1f be 74 2e 84 be 71 5e 08 3a
       0.021365069 -0.15608256 -0.2581669 0.0005202061
000140 8d 3d 3a bc e0 7e 4a 3d 5d 43 40 be 88 f7 df 3d
       -0.011367214 0.049437404 -0.18775697 0.10935885
000150 c5 a8 c6 be 8b d5 fb 3c 8e e8 09 be 02 70 c4 bd
       -0.38800636 0.030741474 -0.13467619 -0.09591676
000160 cd ec 90 3b a7 15 a3 bd eb ad 4d 3d 04 f1 1b bf
       0.00442276 -0.07963114 0.05021469 -0.60914636
000170 38 7b 27 3d 2d c1 6d bc 0d d4 21 be d3 43 5f be
       0.040888995 -0.014511389 -0.15803547 -0.21803217
000180 ea 12 18 3e 59 cb a7 3d eb b4 91 bd f1 f7 90 3d
       0.14850965 0.08193082 -0.071145855 0.07078541
000190 33 83 d2 3d ef 9e 9e bd 16 2f 4e 3c 0c f3 58 3b
       0.102789305 -0.07745158 0.012584468 0.0033103852
0001a0 70 39 dd bd 52 dd 10 3d 6f 82 11 3d 89 a2 39 be
       -0.10801971 0.035367317 0.03552478 -0.18128408
0001b0 30 b9 a6 3d 4f a6 a4 3d f6 b1 06 be 8b fd a3 be
       0.081407905 0.08039533 -0.13153824 -0.32029375
0001c0 a6 0e 9f be 18 10 a8 3d 36 04 8f 3d 42 60 c0 3d
       -0.31065863 0.08206195 0.06983225 0.0939336
0001d0 fb 1a ee bc 9c f3 08 3d 18 00 25 bc f4 97 48 3e
       -0.0290656 0.03343545 -0.010070823 0.19589216
0001e0 c2 46 f4 bd 9f 09 15 bd f1 bc c3 bd c1 f8 d7 3d
       -0.119275585 -0.03638613 -0.09557522 0.10545493
0001f0 f6 29 40 be b7 fa b9 3d ac 99 c7 bc 32 13 de be
       -0.18766007 0.09081023 -0.024365269 -0.4337402
000200 66 46 70 3d e7 10 18 bd 7d fc c2 3d 42 4c 8b be
       0.058660887 -0.037125494 0.095208146 -0.27206618
000210 2e 79 41 be c1 29 ac be 40 0a b1 bc a1 c0 a4 b8
       -0.18893883 -0.33625606 -0.021611333 -7.856009e-05
000220 cb 03 15 be 42 50 93 3d 2b e6 e3 3d b7 15 1a 3d
       -0.14552228 0.07193042 0.111278854 0.037618365
000230 1f 26 1c be c6 a0 97 ba d0 9e d1 3d 78 d6 cb bb
       -0.15248917 -0.00115683 0.10235369 -0.006220635
000240 e3 3c e6 bc 2e 2e 02 be 90 05 11 3e 1c f7 15 be
       -0.028105205 -0.12712929 0.14162278 -0.14645046
000250 10 a1 d0 3d 39 e5 87 bc c1 ed af be 22 e6 c4 3b
       0.1018697 -0.016588794 -0.3436108 0.0060088793
000260 62 e6 6b be dc b3 13 3e e5 2f d4 3c f0 66 b1 bd
       -0.23037103 0.1442408 0.025901744 -0.08662212
000270 89 d7 6b bd 00 64 e3 3d 0a f6 f6 bd 6c f9 01 3d
       -0.057578597 0.11103058 -0.12058647 0.031732008
000280 73 f0 39 be 59 09 cc 3d d8 39 98 be 95 f3 84 bd
       -0.1815813 0.099627204 -0.2973163 -0.06491772
000290 3f 77 66 bd e7 2e 93 bc 2e a5 c2 3d 11 51 3d 3e
       -0.056266066 -0.0179667 0.09504162 0.18487956
0002a0 36 6c a0 3d 3e 45 d6 3c 61 f3 c0 bd 9a 3d 65 be
       0.078331396 0.026156064 -0.09421421 -0.2238678
0002b0 c8 db 81 bc 56 a0 77 3d 72 da 43 be c8 34 11 be
       -0.01585187 0.060455643 -0.19126299 -0.1418029
0002c0 73 b4 89 be 29 22 e1 3d 4c 44 40 3e ab ae 4c bc
       -0.26895484 0.10992844 0.18776053 -0.012492816
0002d0 3d d7 fa bb 9c ad d1 be af 3e 8e be d0 28 e2 be
       -0.007655053 -0.40952766 -0.277822 -0.44171762
0002e0 de 6c 50 be 15 c1 99 be 6c dd b7 3c 02 92 e2 3d
       -0.2035403 -0.30030122 0.02244445 0.11063005
0002f0 93 83 f6 3d fd e0 95 3c 9a e5 50 3e df f9 ad bd
       0.120368145 0.01829576 0.20400086 -0.08494925
000300 3e ed 91 3d 57 36 19 bd 48 de d9 3c 37 86 01 be
       0.071253285 -0.03740534 0.02659525 -0.12648855
000310 c8 0d ec be 4d 97 6c 3d e3 4f 48 bb a9 cc 31 be
       -0.46104264 0.05776148 -0.0030565194 -0.17363228
000320 1f 35 11 be eb 4a 51 be 08 52 64 be 0b 65 9b 3d
       -0.1418042 -0.20438735 -0.22296917 0.07587632
000330 74 73 0c 3e e9 bb 38 bd f9 90 84 be 92 4c c5 3a
       0.13715917 -0.04510108 -0.25891855 0.0015052727
000340 b2 90 ff 3c 10 cc 02 3e d7 eb fe bd 8a f2 fd bd
       0.031196926 0.12773156 -0.12447327 -0.12399776
000350 2a 81 ec bd 49 cd a7 3d a4 df 28 be d1 99 10 bd
       -0.115480736 0.08193452 -0.16491562 -0.03530294
000360 d5 45 f5 3b c2 90 c2 3c 70 4c c5 be b3 0d f2 bd
       0.0074851313 0.023750667 -0.3853488 -0.11819019
000370 68 e3 89 3d 7c 7f a2 bd 5f 8a c1 bd b1 87 01 be
       0.067328274 -0.07934472 -0.0945022 -0.12649418
000380 a1 fe 54 3d 59 9c 42 3e 08 18 57 bc 95 37 ef 3d
       0.052000646 0.19004954 -0.013128288 0.11680523
000390 41 58 53 be ce db aa bc 8b ae b3 3d 5a 25 ec 3d
       -0.20639135 -0.020856764 0.08773526 0.11530562
0003a0 99 a0 4c 3d 23 13 05 3e 00 53 f7 3d 50 90 b9 3d
       0.049957845 0.12995581 0.12076378 0.090607285
0003b0 06 e4 06 be f6 61 4b 3d 00 bb a6 3d 78 1c b6 3d
       -0.13172922 0.04965397 0.08141136 0.08892149
0003c0 5e be bd bd b6 46 1a 3e 53 5d d7 3d d4 57 2a be
       -0.09264825 0.15066037 0.10515847 -0.16635066
0003d0 a8 ac d8 3d dd 43 7b be be c3 f3 3c ef 77 81 3d
       0.105798066 -0.24537607 0.029756423 0.06321704
0003e0 3a 60 05 3e f0 52 3b 3d 99 39 a2 3d e4 a1 85 3c
       0.13024989 0.045733392 0.07921142 0.016312547
0003f0 6c 41 8f bd 8d c3 0d 3d 6e 65 a7 3d 01 b8 22 bd
       -0.069949 0.03461032 0.08173643 -0.03972626

fc2.bias f4 [10]
000000 aa 5b c8 bd 80 e7 3f 3d a3 75 13 3d 75 55 ea bd
       -0.097831085 0.046851635 0.03600086 -0.11442081
000010 21 d0 a0 3d 68 82 27 3d be bc 65 3c b3 55 05 bd
       0.078521974 0.04089585 0.01402205 -0.032552432
000020 d6 58 16 3d 2b 9b 0f 3b
       0.036705814 0.0021912556
