mnist_mlp_model.pth (torch, 816272 bytes, 4 tensors)

fc1.weight f4 [256, 784]
0	0x3cc66066	0.024215888
1	0x3c533e00	0.0128932
2	0x3c9c009a	0.019043256
3	0xbcdd31b5	-0.027001241
4	0x3c9c0f9e	0.019050416
5	0x3cf55f0e	0.029952552
6	0x3c939096	0.01801328
7	0x3bb9d7f8	0.0056714974
8	0xbbf824f0	-0.0075727627
9	0x3ceaf03e	0.02867901
10	0xbbe6e9b8	-0.0070469044
11	0x3c449440	0.011998236
12	0xbd870289	-0.065922804
13	0x3b83bae2	0.004020081
14	0x3b5d1144	0.0033732215
15	0x3ca2a288	0.019852892
16	0x3c39ce3c	0.011340674
17	0x3d00c7bd	0.031440485
18	0xbc89e3da	-0.01683228
19	0x3c17d7b8	0.00926774
20	0x3caa1e18	0.020766303
21	0xbc87ce9a	-0.016578007
22	0x3cbce15e	0.023056682
23	0x3bae8368	0.0053257234
24	0x3c018ac0	0.007906616
25	0x3d055cd7	0.032559242
26	0xbb428090	-0.002967868
27	0xbc98099c	-0.01855927
28	0xbb9d1f00	-0.0047949553
29	0xbca58c45	-0.020208487
30	0x3c5f9368	0.013645984
31	0x3c1e995c	0.009680118
32	0xbd3ab243	-0.04558016
33	0x3c300d50	0.010745361
34	0xbb95058b	-0.00454778
35	0xbcbca7af	-0.023029177
36	0x3c80f125	0.015739987
37	0xbd81f0ea	-0.06344779
38	0xbd93c832	-0.072159186
39	0xbd6f6ae0	-0.058451533
40	0xbddcc4b3	-0.10779705
41	0xbded6b3e	-0.115927204
42	0x3d878b55	0.06618372
43	0x3d6994c8	0.057026654
44	0xbb1db91e	-0.0024066637
45	0xbd4ef954	-0.050530747
46	0xbd4239c8	-0.047418386
47	0xbd819c0b	-0.06328591
48	0xbe1a2bc0	-0.15055752
49	0xbdcb1fda	-0.099181846
50	0xbd91cb3f	-0.07118844
51	0xbce9665e	-0.028491195
52	0x3ce5c2be	0.028046962
53	0x3d084b13	0.03327472
54	0x3c9c5466	0.019083213
55	0xbcbdc080	-0.02316308
56	0xbce5f3d1	-0.028070362
57	0x3c982640	0.018572927
58	0xbd6e6674	-0.058203176
59	0xbc594aa2	-0.013262423
60	0xbd9a63d1	-0.0753857
61	0xbc4f4b2e	-0.012652202
62	0xbc364995	-0.011125942
63	0xbd91b05f	-0.07113718
64	0xba98b04a	-0.0011649218
65	0xbb90e43d	-0.0044217394
66	0x3d5ba632	0.053625293
67	0xbd972023	-0.073791765
68	0x3cc1e143	0.023666983
69	0x3df35605	0.11881641
70	0xbd2bfc0d	-0.04198842
71	0x3c56e57c	0.013116237
72	0x39d6cbc4	0.00040969078
73	0x3da933e5	0.08261851
74	0x3df04d33	0.117334746
75	0x3d7343b5	0.059390742
76	0x3d641193	0.055680823
77	0x3c1eca3b	0.00969177
78	0xbd85159e	-0.06498264
79	0x3c832631	0.016009422
80	0xbb0f7400	-0.002188921
81	0x3d1c6f4a	0.03819207
82	0x3cca830e	0.024720695
83	0xbc4c2eee	-0.012462361
84	0x3c545e18	0.012961887
85	0x3ae61ac0	0.001755558
86	0x3e4367af	0.19082521
87	0xbcf7a4dc	-0.030229978
88	0x3b017457	0.0019753182
89	0xbdcccd3e	-0.10000084
90	0xbdb28288	-0.08716303
91	0xbdc4b796	-0.09605329
92	0xbdcd6123	-0.10028293
93	0xbcb01411	-0.021493943
94	0x3d6d7ff6	0.05798336
95	0xbe133874	-0.14377004
96	0xbd0aa0b5	-0.03384467
97	0xbd0d7473	-0.034534883
98	0xbe0cc632	-0.1374748
99	0x3c400932	0.011720942
100	0x3d08706f	0.03331035
101	0x3cfbf245	0.030755172
102	0x3d4bc658	0.049749702
103	0xbd0f1878	-0.034935445
104	0xbe4472c1	-0.191844
105	0xbdd3860d	-0.103283025
106	0x3d5a2177	0.05325457
107	0x3c18cc05	0.009325986
108	0xbdaa322d	-0.083103515
109	0x3da112fc	0.07864949
110	0x3d1540dd	0.03643881
111	0x3c330510	0.0109265
112	0xbd077ac0	-0.033076048
113	0xbd1cf88d	-0.038322974
114	0x3e37e66e	0.17958996
115	0xbd709e56	-0.05874475
116	0xbe21810e	-0.15771887
117	0x3d0b3b08	0.033991843
118	0x3e0a0682	0.13479045
119	0x3da27fc3	0.07934525
120	0x3d78bdfe	0.060728066
121	0x3df6a4e5	0.1204317
122	0x3d8692fc	0.06571004
123	0x3db0b4f3	0.08628263
124	0x3d5fa793	0.05460317
125	0x3cf66500	0.030077457
126	0xbc8ebda3	-0.01742441
127	0xbb01676b	-0.001974548
128	0x3c9cfc14	0.019163169
129	0x3d663fc5	0.05621316
130	0x3cc13846	0.023586404
131	0x3ca11380	0.019662619
132	0xbd94f2bb	-0.0727286
133	0xbd70d1cc	-0.058793828
134	0xbd2b5d9a	-0.041837312
135	0xbd923b1d	-0.07140181
136	0x3d239e2e	0.039945774
137	0x3da9a80b	0.08284005
138	0x3dc56e36	0.09640162
139	0xbdc4892e	-0.095964774
140	0x3d0b5521	0.034016732
141	0x3acf7400	0.0015827417
142	0x3e22c9c7	0.15897284
143	0x3e0fcde6	0.14043388
144	0x3dc1e8c3	0.09468224
145	0xba98b097	-0.0011649308
146	0x3d870a64	0.06593779
147	0x3d981cc6	0.07427363
148	0xbdf010cf	-0.11721956
149	0xbda2191a	-0.07914944
150	0x3ddc2470	0.107491374
151	0x3dbb0007	0.091308646
152	0x3d99c08b	0.07507428
153	0xbce80919	-0.02832465
154	0xbd1c7d76	-0.038205586
155	0xbcb4a489	-0.022051113
156	0x3cbeb0bb	0.023277631
157	0x3d3bc8aa	0.045845665
158	0xbd65904c	-0.056045815
159	0xbbee62d8	-0.0072749667
160	0xbb678125	-0.003532478
161	0x3e05f0a0	0.13080072
162	0x3e0fba76	0.14035973
163	0x3cde9a48	0.027173176
164	0x3d430b4b	0.04761819
165	0x3c8ffed2	0.017577562
166	0xba440246	-0.00074771454
167	0xbdc1573c	-0.09440467
168	0xbaf14640	-0.0018407777
169	0x3ceb0082	0.028686766
170	0xbdba8c22	-0.091087595
171	0x3d740bee	0.05958169
172	0xbd8a9c80	-0.06768131
173	0xbe20358c	-0.15645427
174	0xbcd9101b	-0.026496937
175	0xbd5c5963	-0.053796183
176	0xbd2cddd2	-0.04220373
177	0x3bf8d76f	0.007594041
178	0x3de6aaf6	0.11263077
179	0x3dbea177	0.09308141
180	0x3d4e6234	0.050386623
181	0xbdd50300	-0.10400963
182	0xbd6d4faa	-0.0579373
183	0x3ba824aa	0.005131324
184	0xbda88f59	-0.082304664
185	0xbdc6023c	-0.09668395
186	0x3c7090be	0.014682947
187	0x3caf0c69	0.021368222
188	0x3cfa2bd6	0.03053848
189	0xbc4f2109	-0.012642154
190	0xbc9838a8	-0.018581703
191	0x3d7588d5	0.059944946
192	0xbe0b731d	-0.13618131
193	0x3d8cce8b	0.068753324
194	0x3d967bd9	0.07347841
195	0xbd095f0f	-0.03353792
196	0xbcbeb2d3	-0.02327863
197	0xbe126678	-0.14296901
198	0xbe0f3e21	-0.13988544
199	0xbc64a5fa	-0.0139555875
200	0x3d59357b	0.05302952
201	0xbd8104d6	-0.062997505
202	0xbdf92403	-0.12165072
203	0xbd4aa59a	-0.049474336
204	0x3d090e19	0.03346071
205	0x3d3e8d04	0.0465212
206	0x3dab063b	0.08350798
207	0x3d1d1a35	0.03835507
208	0x3da9dbba	0.08293863
209	0xbcacded1	-0.02110234
210	0xbc079e85	-0.00827754
211	0xbd74124a	-0.059587754
212	0xbcf7ebf8	-0.030263886
213	0xbdec5bbb	-0.11540934
214	0xbb566200	-0.003271222
215	0x3d18f407	0.037342098
216	0x3c19e052	0.009391861
217	0x3d815fb6	0.063170835
218	0x3dc55ec8	0.09637219
219	0xbe0ec5f3	-0.13942699
220	0xbe5e9b1f	-0.21738862
221	0x3bc5696e	0.006024531
222	0x3d4abe2d	0.049497772
223	0xbda93137	-0.0826134
224	0xbe9cea83	-0.30647668
225	0x3c6e11e1	0.01453063
226	0xbdb0c907	-0.08632093
227	0x3d8ca895	0.06868092
228	0xbc49173e	-0.012273608
229	0xbde37727	-0.11106711
230	0xbdc37dae	-0.09545456
231	0xbd2e7b3d	-0.042597998
232	0xbdf6f1da	-0.12057848
233	0xbbf0d3c2	-0.0073494622
234	0x3dd84b68	0.105612576
235	0x3cd8f9b5	0.026486257
236	0xbc8031a2	-0.015648667
237	0x3b07d443	0.0020725883
238	0xbdb4db1b	-0.088308536
239	0xbdb8da66	-0.09026031
240	0xbdb2b3d9	-0.087257095
241	0xbce3527e	-0.027749296
242	0xbb9fb899	-0.0048743007
243	0x3da1d449	0.07901818
244	0x3d0d5b76	0.034511052
245	0x3c28a094	0.010292191
246	0x3c98eed4	0.01866857
247	0x3cca7400	0.024713516
248	0xbe22929c	-0.1587624
249	0x3c92c5b9	0.017916547
250	0x3e2603b7	0.16212355
251	0x3d4f4089	0.050598655
252	0xbd982fbd	-0.0743098
253	0xbe391e40	-0.18077946
254	0x3d1dc9e3	0.038522612
255	0x3c050945	0.008119886

fc1.bias f4 [256]
0	0x3dd7471a	0.105116084
1	0xbb9c71ce	-0.0047743088
2	0x3d676031	0.05648822
3	0x3de7ebfb	0.113243066
4	0x3bc64e5f	0.006051823
5	0x3e1e1e86	0.15441331
6	0x3cf140dd	0.029449875
7	0x3d38d9ef	0.045129713
8	0xbe1bbde0	-0.1520915
9	0x3d086502	0.033299454
10	0xbdc9d377	-0.09854787
11	0xbc8897ef	-0.01667401
12	0xbc097b74	-0.00839125
13	0xbdd85d22	-0.10564639
14	0x3d198582	0.03748084
15	0xbd819dc5	-0.0632892
16	0xbddb5253	-0.107090615
17	0xbdf58a6e	-0.11989294
18	0x3e0e9b97	0.1392654
19	0xbdb50f9c	-0.08840868
20	0x3b33f50c	0.0027459292
21	0xbda501c0	-0.080569744
22	0x3dd8b059	0.10580511
23	0x3d3e70fb	0.046494465
24	0xbe096d9e	-0.13420722
25	0x3dd1ad95	0.10238186
26	0xbbed16a5	-0.0072353655
27	0x3d63634d	0.055514622
28	0x3e11e936	0.14249119
29	0x3d29d6ba	0.041464545
30	0xbda7c3be	-0.08191632
31	0xbda5b2e1	-0.08090759
32	0xbd2de6c9	-0.042456422
33	0x3e4cbed0	0.19994664
34	0x3e28a955	0.16470845
35	0x3da51e7c	0.08062455
36	0x3b0a9d8a	0.002115103
37	0x3e37a726	0.17934856
38	0x3d8ebc37	0.06969493
39	0xbc8bdc64	-0.017072864
40	0xbd4d4527	-0.050114777
41	0x3d69a2b8	0.057039946
42	0x3d8a951c	0.067667216
43	0x3c84804e	0.016174462
44	0xbe82a93d	-0.25519744
45	0x3d30b002	0.043136604
46	0xbd8bbe24	-0.06823376
47	0x3d59098f	0.05298763
48	0xbc7eef47	-0.015559978
49	0x3e283835	0.16427691
50	0x3d5225fa	0.05130575
51	0x3d144c62	0.036205657
52	0xbceae81a	-0.028675128
53	0xbd42de9a	-0.04757557
54	0x3dde4fc1	0.108550556
55	0x3e488f4c	0.19585913
56	0xbcdfb85f	-0.027309595
57	0x3c595e89	0.013267168
58	0x3e07fc1d	0.13279767
59	0x3d81b023	0.063324235
60	0x3da9e213	0.08295073
61	0xbb1ceea6	-0.0023945956
62	0x3d9dff79	0.07714743
63	0x3e53845d	0.20655961
64	0x3c0f1b75	0.008734574
65	0xbce74c0b	-0.028234502
66	0x3d3f8024	0.046753064
67	0x3df3f934	0.11912766
68	0x3d4f1485	0.05055668
69	0x3dac3857	0.084091835
70	0xbb9f17ad	-0.0048551173
71	0x3d5202e1	0.051272277
72	0xbc9a4e10	-0.018836051
73	0x3b46152b	0.003022502
74	0x3e439305	0.19099052
75	0x3dd25ab0	0.102712035
76	0x3d6a4796	0.057197176
77	0x3d77c821	0.060493592
78	0x3e72cf87	0.23711978
79	0x3e38ad82	0.18034938
80	0x3bf75581	0.0075480347
81	0xbdadb98d	-0.08482657
82	0xbde22eaf	-0.110440604
83	0x3d38d896	0.045128427
84	0x3d08532c	0.033282444
85	0x3d3d8e1e	0.04627811
86	0x3e1c7137	0.15277563
87	0xbdf3bca7	-0.11901217
88	0xb9b938b3	-0.00035328194
89	0xbd8ecb84	-0.06972411
90	0x3d56db9a	0.052455522
91	0xbcc90311	-0.024537595
92	0x3dc4c41c	0.096077174
93	0x3df8fa58	0.12157124
94	0x3e08edd0	0.13371968
95	0x3da16ae0	0.07881713
96	0x3d3e3380	0.046435833
97	0x3c826c0a	0.015920658
98	0x3dba6ff9	0.09103388
99	0x3d503d22	0.05083955
100	0x3e544930	0.20731044
101	0x3c31fc65	0.010863398
102	0x3de3b174	0.11117831
103	0x3e2b5aa2	0.16733792
104	0x3c373015	0.011180897
105	0x3d03c1f2	0.032167383
106	0xbcb8463f	-0.022494433
107	0xbd9d7351	-0.076880105
108	0x3e5043ce	0.20338365
109	0x3cc6f694	0.0242875
110	0x3d3ca6f5	0.04605766
111	0x3d7feb2d	0.06248014
112	0x3bcddd4f	0.0062824856
113	0xbdb198d7	-0.0867173
114	0x3db05629	0.08610184
115	0x3c9bcd37	0.019018753
116	0x3d82a49c	0.06379053
117	0x3dfa75e6	0.122295186
118	0x3dab6e94	0.083707005
119	0xbdb8dc84	-0.09026435
120	0x3dc489a5	0.09596566
121	0x3c75396c	0.014967304
122	0x3d5b971b	0.053610902
123	0x3db2ab10	0.08724034
124	0x3d3c5e93	0.04598863
125	0x39ebb3db	0.00044956696
126	0xbbdcff88	-0.006744329
127	0xbd00af32	-0.03141708
128	0xbc8a85ea	-0.016909558
129	0x3e1941df	0.14966534
130	0x3e279dfa	0.16368857
131	0x3dee26df	0.11628508
132	0xbe25156b	-0.16121452
133	0x3da03df3	0.07824316
134	0xbdc8716a	-0.09787257
135	0x3e852a0e	0.26008648
136	0xbd8361e8	-0.064151585
137	0xbd18dffc	-0.037322983
138	0x3db909a5	0.09035043
139	0xbcbe88bc	-0.02325856
140	0x3e38d9e7	0.18051873
141	0x3d5c1b29	0.05373684
142	0x3a53dc46	0.00080818345
143	0x3dc63867	0.09678727
144	0xbe07c2f9	-0.1325797
145	0xbd629890	-0.055321276
146	0xbd4a129a	-0.049334146
147	0x3e04df46	0.12975797
148	0x3dc6e5fb	0.09711834
149	0x3c264e25	0.010150467
150	0xbd911b76	-0.07085316
151	0x3d8a4e21	0.06753183
152	0x3e2f894f	0.17142223
153	0x3d251590	0.040303767
154	0x3ddefc18	0.10887927
155	0xbdb172ff	-0.08664512
156	0x3cb09108	0.021553531
157	0xbda39470	-0.079872966
158	0x3e064a57	0.13114296
159	0x3afec7ad	0.001943817
160	0x3e26273f	0.16225909
161	0x3d551ca9	0.052029286
162	0x3d963583	0.07334425
163	0xbc1dc7a2	-0.009630116
164	0xbe54d7ff	-0.20785521
165	0x3d500a9b	0.050791364
166	0x3d870b8a	0.06593998
167	0xbd365dbf	-0.044522997
168	0xbcdaf4e3	-0.0267281
169	0x3d6eff0c	0.0583487
170	0x3db3fc04	0.087883025
171	0xbc69a50b	-0.014260541
172	0x3de065ee	0.109569415
173	0x3caf9554	0.02143351
174	0x3d671840	0.05641961
175	0x3bd0454d	0.0063559175
176	0x3d15371a	0.036429502
177	0x3a987bff	0.0011633633
178	0x3d87d364	0.066321164
179	0x3db9eb82	0.09078123
180	0x3ce78acd	0.028264428
181	0x3dd96bb7	0.10616248
182	0xbdea889a	-0.11451836
183	0xbcdced45	-0.026968608
184	0x3d11cd3e	0.035596125
185	0x3dc5e290	0.09662354
186	0x3dd96c11	0.10616315
187	0x3dc69e94	0.09698215
188	0x3e0b31b0	0.13593173
189	0x3e115701	0.14193346
190	0x3d51c614	0.051214293
191	0x3dc45ffd	0.09588621
192	0x3da2fe2e	0.07958637
193	0x3e3be4ba	0.18348971
194	0x3dd4f5b8	0.1039843
195	0x3d947505	0.07248882
196	0x3e16e3ff	0.14735411
197	0x3e76434d	0.2404911
198	0x3d05bf97	0.032653417
199	0x3cba06b4	0.022708274
200	0xbcd985bf	-0.026553033
201	0x3c9825a4	0.018572636
202	0x3cd98936	0.026554685
203	0x3df3698d	0.118853666
204	0x3dc250df	0.09488081
205	0x3b8325f7	0.0040023285
206	0x3c9df23e	0.01928055
207	0x3e318b1a	0.1733822
208	0xbe7b8f8f	-0.24566482
209	0xbd8eee0b	-0.06978997
210	0xbd1c9a08	-0.038232833
211	0xbd7324f3	-0.05936141
212	0x3e846008	0.25854516
213	0x3d6f7e2b	0.058469933
214	0x3dee9508	0.11649519
215	0xbdff968b	-0.12479886
216	0x3e1e5604	0.154625
217	0x3e0fa408	0.14027417
218	0x3d1a3b83	0.03765441
219	0xbd703697	-0.05864581
220	0xbc919e2f	-0.017775623
221	0x3dac4846	0.084122226
222	0xbe27afe6	-0.16375694
223	0x3e161e72	0.14660051
224	0xbd897a49	-0.06712777
225	0xbdcc37dc	-0.09971592
226	0x3ddffcd1	0.10936893
227	0x3b0f3b74	0.0021855505
228	0x3debcccd	0.11513672
229	0x3cf9e85d	0.030506307
230	0x3d14418a	0.036195315
231	0xbd0319ab	-0.0320069
232	0xbc2d7e24	-0.010589156
233	0x3d4c99ba	0.049951293
234	0x3e3660dc	0.17810386
235	0x3b063597	0.002047872
236	0x3dfab601	0.12241746
237	0x3d06e561	0.032933597
238	0xbe09942c	-0.1343543
239	0x3dddd648	0.108318865
240	0x3ba83cf7	0.0051342207
241	0x3e4515f4	0.19246656
242	0x3c077a95	0.008268972
243	0x3db50c5b	0.08840247
244	0x3c70db9c	0.014700796
245	0x3d120dfb	0.035657864
246	0xbc5bd2fa	-0.013417
247	0x3e1f2a3f	0.1554346
248	0x3dbfed39	0.093714185
249	0x3c9438b9	0.018093454
250	0x3dff38b4	0.12461987
251	0x3d3124be	0.04324793
252	0x3d5bc00a	0.05364994
253	0x3e12ee63	0.1434875
254	0x3e31ca53	0.17362337
255	0x3d73df27	0.059538987

fc2.weight f4 [10, 256]
0	0xbe4ffd40	-0.20311451
1	0x3e01f183	0.12689786
2	0xbe83489d	-0.25641337
3	0x3a65acca	0.00087614043
4	0xbeaecd55	-0.3414103
5	0xbef8e131	-0.48609307
6	0xbe7cd4b3	-0.24690513
7	0xbeecd7b5	-0.4625832
8	0x3df76698	0.12080115
9	0x3d960082	0.073243156
10	0x3e35520f	0.17707084
11	0xbd385be1	-0.045009498
12	0xbd99cdc3	-0.07509949
13	0xbea42a9c	-0.32063758
14	0xbee6c800	-0.45074463
15	0x3e468860	0.1938796
16	0x3e00fddb	0.12596838
17	0x3d6cede7	0.05784407
18	0xbda18b73	-0.07887926
19	0x3df7d112	0.12100424
20	0x3e1d2bf3	0.15348797
21	0xbeafc56f	-0.34330317
22	0x3df7f4d7	0.12107246
23	0xbd273faa	-0.0408322
24	0xbe3ad4c2	-0.18245223
25	0x3e2c9143	0.16852288
26	0xbe8b567e	-0.27214426
27	0x3d2c1768	0.04201451
28	0x3e4e4ca9	0.20146431
29	0xbd8a7095	-0.067597546
30	0x3e50ad7d	0.2037868
31	0xbd78e5fa	-0.060766198
32	0x3b7265d7	0.003698697
33	0x3ddae0b7	0.10687392
34	0xbe9c45e0	-0.3052206
35	0xbebb69a3	-0.36604032
36	0x3ce8ca4b	0.028416773
37	0xbf11635a	-0.56792223
38	0x3d46b6dc	0.048514232
39	0x3e0ac845	0.1355296
40	0xbebb5bb8	-0.36593413
41	0xbe328489	-0.1743337
42	0x3c34b9d0	0.011030629
43	0x3ec3c9ad	0.38239804
44	0x3e2d64f5	0.16933043
45	0x3dbf8f48	0.093535006
46	0x3d17d5c6	0.037069105
47	0xbd8b99a4	-0.06816414
48	0xbf5fc9cd	-0.874173
49	0xbdd2c5ab	-0.102916084
50	0xbeed5edb	-0.4636143
51	0xbe478c59	-0.19487132
52	0xbe1b1c46	-0.15147504
53	0x3de6bdda	0.1126668
54	0xbe3ea4b3	-0.18617515
55	0x3e2f6253	0.17127351
56	0xbf10b636	-0.5652803
57	0x3dfe81b3	0.12427082
58	0x3e4d2737	0.2003449
59	0x3d7d1e98	0.061796755
60	0x3e01007e	0.12597844
61	0x3df133c6	0.11777453
62	0xbc5e5280	-0.013569474
63	0xbdb520ca	-0.08844145
64	0x3e02ec59	0.12785472
65	0xbef8b6d7	-0.48576996
66	0x3dff4211	0.12463773
67	0xbeecec70	-0.46274137
68	0x3dbc71cf	0.09201395
69	0x3d9a3617	0.07529848
70	0x3e506034	0.20349199
71	0x3dbdfed5	0.09277121
72	0xbe3b28aa	-0.18277231
73	0x3e088617	0.13332401
74	0x3e6f328e	0.23359129
75	0xbdf0e5f2	-0.117626086
76	0xbdfde41f	-0.12397026
77	0xbea7f89a	-0.32806855
78	0xbe97df43	-0.29662523
79	0xbedda998	-0.43293452
80	0xbad5921a	-0.0016294152
81	0x3e92c6d9	0.28667334
82	0xbd09b44e	-0.033619218
83	0xbe3b5f81	-0.1829815
84	0x3d3e86c4	0.04651524
85	0x3d53a5ad	0.051671673
86	0xbdf95453	-0.12174287
87	0x3e23cdf4	0.15996534
88	0xbead8b9e	-0.33895582
89	0x3bb5ca4d	0.005547798
90	0xbdbdc0e5	-0.09265307
91	0xbec23246	-0.3792898
92	0xbe62d5e2	-0.22151902
93	0xbdb5b9df	-0.08873343
94	0x3e8b29ae	0.27180237
95	0xbd86b86c	-0.065781444
96	0x3d91397c	0.070910424
97	0xbd7c7fd8	-0.06164536
98	0x3da8601c	0.082214564
99	0x3d4aa2c9	0.04947165
100	0xbc7633b2	-0.015026974
101	0xbe27ae5a	-0.16375104
102	0xbf0e38d8	-0.55555487
103	0x3dea7028	0.11447173
104	0x3968c800	0.0002219975
105	0x3d662768	0.056189924
106	0x3d9c01b3	0.076175116
107	0x3d2aa31c	0.04165946
108	0x3db50d38	0.08840412
109	0x3dced831	0.10099829
110	0xbc893c1a	-0.016752291
111	0xbe106176	-0.14099678
112	0xbbdcc6e2	-0.006737576
113	0x3e490a09	0.19632734
114	0xbe709a27	-0.23496304
115	0xbe71557e	-0.23567769
116	0xbe8af449	-0.271395
117	0xbc458bf2	-0.012057291
118	0xbe9daea7	-0.30797312
119	0xbdeed187	-0.11661058
120	0x3ec4597f	0.3834953
121	0xbef37e27	-0.47557184
122	0xbefab732	-0.48967892
123	0x3df8ee54	0.121548325
124	0x3de99e58	0.11407155
125	0x3e8cccd1	0.27500013
126	0x3cb69a71	0.02229044
127	0xbedf88e1	-0.43659118
128	0xbe2388d3	-0.15970163
129	0x3e441088	0.19146931
130	0x3d631f99	0.055450056
131	0xbd993856	-0.07481448
132	0xbf1430f9	-0.57887226
133	0xbdc124f2	-0.09430875
134	0xbf2f36f2	-0.68443215
135	0x3e1d5670	0.15365005
136	0x3e4bd18c	0.19904155
137	0x3cf40866	0.029789161
138	0xbe8aa9b2	-0.27082592
139	0xbcfd2061	-0.030899229
140	0x3e3ff0e3	0.18744235
141	0xbeb9518c	-0.36195028
142	0xbeb3c0d8	-0.35108066
143	0x3e79427d	0.2434177
144	0xbeac5486	-0.33658236
145	0xbe62f327	-0.22163068
146	0x3ddc89e9	0.10768492
147	0xbe65be29	-0.22435822
148	0xbdd4d964	-0.103930265
149	0x3dd1b8fb	0.1024036
150	0xbd94bdbb	-0.07262751
151	0xbed95cd5	-0.42453638
152	0x3da75223	0.08169963
153	0x3df937e6	0.12168865
154	0xbebd415d	-0.3696393
155	0x3d869f65	0.06573371
156	0xbb90fa8e	-0.0044243997
157	0x3cd639f3	0.02615068
158	0xbd5aa523	-0.053380143
159	0xbd4a1d19	-0.049344156
160	0x3ec368c7	0.38165876
161	0xbcae3783	-0.021266704
162	0x3e2d2b41	0.16911031
163	0xbdca7906	-0.09886365
164	0xbe94b129	-0.29041412
165	0xbda2cccd	-0.07949219
166	0x3e15c1b6	0.14624676
167	0xbdd7fc01	-0.10546113
168	0x3ebd8bcf	0.37020728
169	0xbf0033e3	-0.5007917
170	0xbcfb4f90	-0.030677587
171	0x3e905f64	0.28197777
172	0xbd734035	-0.059387404
173	0x3e29c4ba	0.16578951
174	0xbf5c5b85	-0.8607715
175	0x3d8793c2	0.066199794
176	0xbe293937	-0.16525732
177	0xbe627072	-0.22113207
178	0x3dada94a	0.08479555
179	0x3d100f9b	0.035171133
180	0x3de77461	0.113014944
181	0xbebfbf2e	-0.37450546
182	0xbb843eb7	-0.0040357965
183	0xbf4bc6f9	-0.79600483
184	0xbd98cc08	-0.07460791
185	0xbee8787c	-0.45404422
186	0x3d3d26b3	0.046179485
187	0xbde0e886	-0.1098185
188	0x3d1323de	0.035922877
189	0xbe99faba	-0.30074102
190	0x3e280b3b	0.16410534
191	0x3dc0fae0	0.094228506
192	0x3c1c1224	0.009525809
193	0x3e376420	0.17909288
194	0x3e9b1ae1	0.30293944
195	0xbea1b2c1	-0.3158169
196	0x3e72caf4	0.23710233
197	0x3d972d1a	0.07381649
198	0x3d22d38d	0.03975253
199	0xbf3b4e46	-0.7316631
200	0x3e135b8f	0.14390396
201	0x3e1f7698	0.15572584
202	0x3e849269	0.25892952
203	0xbe316b50	-0.17326093
204	0xbdb84f23	-0.08999469
205	0x3ec2e3e8	0.38064504
206	0x3e9ef69d	0.31047526
207	0x3dec1efd	0.11529348
208	0xbca4f4a0	-0.020136178
209	0xbd7775f5	-0.060415227
210	0x3ccec3d0	0.025239855
211	0x3e2e35af	0.17012666
212	0xbec489c3	-0.38386354
213	0xbe3f7c28	-0.18699706
214	0x3de125c0	0.10993528
215	0x3daaf499	0.083474346
216	0xbef25423	-0.47329816
217	0x3d01b2f7	0.031664815
218	0xbf56ce34	-0.8390839
219	0x3e393b32	0.18088987
220	0x3df4019e	0.11914371
221	0xbf1a5840	-0.6029091
222	0xbe9eb709	-0.3099902
223	0x3e10bda0	0.14134836
224	0x3e5801ce	0.21094438
225	0x3c98739d	0.018609816
226	0xbe9e46a2	-0.30913264
227	0x3d702897	0.05863246
228	0xbe24bce7	-0.16087686
229	0xbc5078ff	-0.01272416
230	0x3e3cc4cf	0.18434452
231	0xbd2c9bc5	-0.04214074
232	0xbc6437c2	-0.013929309
233	0xbee98248	-0.4560721
234	0x3ccdd9cd	0.02512827
235	0x3e5c626c	0.2152192
236	0xbda883c6	-0.08228259
237	0x3dc60fc9	0.096709795
238	0x3e419ef4	0.18908292
239	0x3e291b90	0.1651442
240	0x3d34125f	0.043962833
241	0xbe8efd21	-0.27927497
242	0x3df81c8d	0.12114821
243	0xbc27b4eb	-0.010236005
244	0x3dec6b7f	0.11543941
245	0xbf14284f	-0.57874006
246	0xbee63783	-0.44964227
247	0xbead6c33	-0.33871612
248	0x3e20ecc2	0.15715316
249	0xbe34f63f	-0.1767206
250	0xbbec892e	-0.0072185015
251	0x3def1710	0.11674321
252	0xbd2e9bb6	-0.042628966
253	0xbf1d0174	-0.6133034
254	0xbef03a04	-0.46919262
255	0xbe60f984	-0.21970183

fc2.bias f4 [10]
0	0xbdfd5e71	-0.12371529
1	0xbcc4b0a7	-0.024010016
2	0x3baba606	0.0052382974
3	0xbc72996c	-0.014807086
4	0x3d63501e	0.055496328
5	0x3d58fec1	0.052977327
6	0xbcfd4b4e	-0.030919697
7	0xbd35cc90	-0.04438454
8	0x3dcfd2c5	0.10147623
9	0x3d704b8f	0.05866581
